pytorch/learning-pytorch/I-deeplearning-with-pytorch/cifar_net.pth (torch, 251604 bytes, 10 tensors)

conv1.weight f4 [6, 3, 5, 5]
000000 67 40 1b be 58 e1 55 3d 38 0d 0a 3f 14 03 bd 3e
       -0.15161286 0.052216858 0.5392642 0.3691641
000010 c0 d4 65 3e 27 0b 09 3e 60 38 4a 3f a4 7f 22 3f
       0.22444439 0.1338316 0.7899227 0.63476014
000020 36 b9 98 3e 63 1f 99 3d cc 68 6c 3e 76 fd 95 bd
       0.29828805 0.0747669 0.23086852 -0.073237345
000030 8e 89 3d bf 1c bb 5c bf 1e 53 2a be 4b a1 a3 3d
       -0.74038017 -0.86223006 -0.16633269 0.079897486
000040 26 49 ba be b3 c2 00 bf 05 1e c6 bd 5a 0e 8c 3d
       -0.36383933 -0.5029709 -0.096736945 0.06838675
000050 a8 17 d3 be 39 5a 14 be 8f f9 40 3d 1f 0c 1b 3e
       -0.41228986 -0.14487542 0.047112998 0.15141343
000060 6c 47 85 be 5b fc 8e be fe a4 6f bd 40 47 85 3e
       -0.26031053 -0.27926907 -0.05850696 0.26030922
000070 97 aa ae 3d 90 d4 58 be b5 a2 7a 3d 47 ed 40 3f
       0.08528631 -0.21174836 0.061190326 0.75362056
000080 c6 fb 1f 3f 9a dd a5 3d 5c 02 3d be 52 6c 8d 3e
       0.6249355 0.08098908 -0.18457931 0.27621704
000090 b6 14 16 bd ef 2d 49 bf d2 ba 60 bf 59 85 8d be
       -0.036640845 -0.78585714 -0.87785065 -0.276408
0000a0 24 a3 7b 3e ff 3d ca be fc cb ca be 51 5c c6 3b
       0.24573952 -0.39500424 -0.39608753 0.0060534854
0000b0 33 8a 66 3e 7a 93 7c be 5f 2b 79 bd 79 cd ab 3e
       0.22513656 -0.24665633 -0.060832378 0.335552
0000c0 74 67 c4 3e a4 6a 53 3c f5 73 ad be d4 19 da be
       0.38360178 0.012903843 -0.3387753 -0.4259783
0000d0 3f a8 27 3b 09 5a 6e bd 09 96 1e be 20 12 26 3d
       0.002558246 -0.058191333 -0.15486921 0.04054463
0000e0 03 4e ba 3e bb 2f c6 3e 8c 76 81 3e ef 38 4a 3e
       0.36387643 0.3870829 0.25285757 0.19748281
0000f0 f2 d5 5b 3e 3e 81 60 3d f3 3a 29 bf 63 de 25 bf
       0.21468332 0.054810755 -0.66105574 -0.6479246
000100 1e f4 c4 3b 68 9c 6e 3e 5c 5f c1 be 7c 03 5c be
       0.0060105463 0.23301852 -0.37768066 -0.21485704
000110 3a 28 57 3e b0 36 95 3e 15 43 d7 bd 1e b0 e5 3c
       0.21011439 0.29143286 -0.10510842 0.02803808
000120 25 ab fa 3e b1 eb 12 3f 03 dd f1 3d 66 28 34 3d
       0.48958698 0.57390887 0.11809733 0.04398384
000130 3d e9 aa 3d 32 fe 80 3e 03 65 5a 3e 1e 4c 87 bc
       0.08345268 0.25193936 0.21327595 -0.016515788
000140 89 40 85 3e 86 f8 50 3e 75 b7 99 3e c9 87 cd 3e
       0.260258 0.20407304 0.3002278 0.40142658
000150 32 81 ef 3d 60 4d 70 3e aa 7d 91 3e fd b7 ca 3e
       0.11694564 0.23467016 0.28416187 0.39593497
000160 94 b9 a3 3e 84 36 49 3e f8 22 41 3e 6a cd c1 bb
       0.31977522 0.19649702 0.18860996 -0.00591438
000170 c5 d1 79 3e 9b 2a f2 3d f1 ac b7 3d 18 99 5d be
       0.24396427 0.118245326 0.08968533 -0.21640432
000180 99 1f 17 be 6d e1 c1 bd 41 fc b1 bd a9 22 cb bd
       -0.14758147 -0.09466825 -0.08690692 -0.0991872
000190 f9 6e 0c 3e 12 e2 ef bd 93 c9 c5 be 50 d3 00 bf
       0.13714208 -0.11713041 -0.3863035 -0.5032244
0001a0 96 c8 cc be 5e 56 e8 bc e3 fd af be e9 57 da be
       -0.39996785 -0.028361496 -0.34373388 -0.42645195
0001b0 1b e3 03 bf 53 a6 90 be 4d eb c2 bd cb bd 88 be
       -0.5151841 -0.28251895 -0.09517536 -0.267073
0001c0 05 6b de be 7c 54 cc be 52 c1 42 be fa 6d 96 bd
       -0.43441024 -0.39908206 -0.19019058 -0.07345195
0001d0 b4 fa a3 be 56 f7 ab be cc ce aa be 1d 6d 1e be
       -0.3202721 -0.3358714 -0.33360898 -0.15471311
0001e0 5e 1e e6 bd db 13 96 be dc 4f 00 be 7b 03 8a bd
       -0.11236261 -0.29312024 -0.12530464 -0.06738945
0001f0 b2 14 ec 3c 76 46 b8 3e ff 1c 81 3e 94 29 16 3e
       0.028818462 0.35991257 0.25217435 0.14664298
000200 7b df bf bc d5 13 d6 3d 17 fb 78 3e bb d7 c5 3c
       -0.023421993 0.104530014 0.24314533 0.02415072
000210 64 0d 0e be cd 15 a4 be c1 ea 94 3d 53 21 81 3e
       -0.13872296 -0.32047883 0.07271338 0.25220737
000220 f8 96 26 be 71 7c 8c be f3 58 9c be 17 8a 3a bd
       -0.16268528 -0.2743869 -0.30536613 -0.04554185
000230 7e 9e 5a 3e a9 3e 98 3c 3e a7 f5 bd 84 f2 a0 ba
       0.21349522 0.018584566 -0.119947895 -0.0012279307
000240 14 25 86 3e d5 0b 7a 3e a7 7e ac 3d 1f 4a bc 3d
       0.26200163 0.24418576 0.084225945 0.09193825
000250 59 b4 15 3e c1 5f a7 3e a5 c8 d1 be 65 77 8b ba
       0.14619578 0.32690242 -0.40973392 -0.0010640441
000260 e3 38 32 be 76 b0 9d bd bb 60 cd bd c3 a7 c8 be
       -0.17404513 -0.07699673 -0.100282155 -0.39190492
000270 e1 ca 90 3b a6 87 8c be b9 39 30 be e8 37 3b be
       0.0044187163 -0.27447242 -0.1720952 -0.18283045
000280 66 ef fc be 40 22 b5 be d0 c5 d9 be 1f a9 92 be
       -0.49401397 -0.35377693 -0.4253373 -0.28644654
000290 85 d2 c1 be d5 b9 88 be 7a e6 c1 be 7c c4 f5 be
       -0.37855926 -0.2670428 -0.37871152 -0.48001468
0002a0 c9 97 c7 be 68 a8 32 be 02 70 9d 3e 2d 91 22 3f
       -0.3898299 -0.17447054 0.30749518 0.6350277
0002b0 a1 4a 2e 3f cb a0 08 3f 41 3b 34 3f f8 5d 56 bd
       0.68082625 0.5337035 0.70402914 -0.05233571
0002c0 4b 9a 6c 3e f0 c6 87 3b fd b5 60 3d d2 69 18 bd
       0.23105733 0.0041435882 0.054861058 -0.037210293
0002d0 da 5f 16 be 6d b0 70 3e 11 00 5d 3d 78 ed 41 3d
       -0.14685002 0.23504801 0.05395514 0.04734561
0002e0 0c e9 39 3d 34 34 82 be 97 b7 03 3d 2c f6 14 be
       0.045388266 -0.25430453 0.032157507 -0.14547032
0002f0 e8 59 de bd 68 76 12 bd b1 2e c2 be 4f 85 b1 be
       -0.10856992 -0.035757452 -0.37926248 -0.3467202
000300 48 d8 f2 be 6b 16 b8 be 76 2a 99 be 1b 4d ca 3d
       -0.47430634 -0.35954604 -0.29915208 0.09877988
000310 f3 98 a1 3e ab a4 a6 3e b1 fb 55 3e 79 e0 2b 3e
       0.31562003 0.32547507 0.20896794 0.16784848
000320 c9 9d 28 3e b0 5d 88 3e 9d fe 83 bd 2a f4 ee bc
       0.1646644 0.26633978 -0.06445048 -0.02916916
000330 1d f9 a2 3d 9f 96 be 3e bc f3 e4 3e 32 78 4c 3e
       0.07957671 0.3722429 0.44717205 0.19967726
000340 09 b7 fc 3d 5d 56 87 3e 3f 0f c2 3d b3 15 d7 3e
       0.12339599 0.26433077 0.09475564 0.42008743
000350 21 75 3c 3e 35 c8 64 3d 4b b5 c6 3d d4 95 89 bd
       0.18404056 0.055854995 0.09702548 -0.067180306
000360 2e 44 eb bd aa 26 a5 be 3a 42 6b be 16 f8 29 be
       -0.114876136 -0.3225606 -0.22974482 -0.16598544
000370 6a cd e0 3d 0c a4 e2 3d 0d d6 7e 3d d3 35 33 3e
       0.109766796 0.11066446 0.062215853 0.17501001
000380 27 f4 1d 3e 25 bf 4b 3e fa 80 4e be 5e 48 7f be
       0.15425168 0.19897135 -0.20166388 -0.2492995
000390 20 44 42 3e 80 ee 28 bd 30 08 31 3f ef ad 64 bf
       0.189713 -0.041243076 0.6915312 -0.893279
0003a0 b2 b0 ff be 49 8e 00 3f 55 01 de bc f9 ee ff 3e
       -0.49939495 0.5021711 -0.027100245 0.4998701
0003b0 0b 8a 83 bf 5c 38 f9 be 36 46 62 3f 96 ed e8 bc
       -1.0276502 -0.4867581 0.88388383 -0.028433602
0003c0 f1 ce 8e bd c3 cd 08 bf ac 74 fc bd 72 8b 40 3f
       -0.06973065 -0.5343897 -0.12326941 0.75212777
0003d0 cf 89 a7 bd a8 7d 34 3d b2 d0 02 3e ae 10 7e 3e
       -0.08180582 0.044065148 0.12774923 0.2481105
0003e0 8c 64 1f 3e 8b 42 2e bd 0e 0b a7 3e 8b 36 88 be
       0.155657 -0.04254393 0.32625622 -0.26604113
0003f0 74 d5 a3 be 84 cf 7d 3e 31 0e e3 3c 40 1f 56 3f
       -0.3199879 0.24786192 0.027716728 0.83641434

conv1.bias f4 [6]
000000 14 02 cd be 94 c0 b2 be d4 00 c6 3c 62 fd ab be
       -0.40040648 -0.3491255 0.024170317 -0.33591753
000010 74 aa 23 bf 34 ed a8 3e
       -0.63931966 0.32993472

conv2.weight f4 [16, 6, 5, 5]
000000 3c 5b 8c bd ba 47 88 be 71 72 3c be 2b 01 e4 bd
       -0.06853339 -0.26617223 -0.18403031 -0.11133035
000010 99 ef e0 3c 44 ed bd bd 07 ed 5e bd 79 35 8a bd
       0.027457999 -0.092737705 -0.054425266 -0.0674848
000020 46 37 00 3d 29 8e aa bd cd 49 59 be 8f 20 72 bd
       0.031302713 -0.08327896 -0.21219559 -0.05911308
000030 b4 9a 59 3d 96 98 cb bc 1a 20 67 bd ed 65 56 be
       0.053126052 -0.024853032 -0.0564271 -0.20937319
000040 b1 1f 98 bd 90 39 1d be 46 f3 db bc 9a 15 3e bc
       -0.0742792 -0.1535399 -0.0268494 -0.01160183
000050 80 8b 68 bd fa ae 1c be 11 af 85 be 31 de 99 be
       -0.056773663 -0.15301123 -0.26110128 -0.3005233
000060 18 d9 43 be 77 80 99 bd c1 aa d4 3d 7b 86 b3 3d
       -0.19125783 -0.07495206 0.10384131 0.087658845
000070 cf 84 20 3e 22 7b 40 3e a5 8b cd bd 2a 84 70 3c
       0.15675662 0.18796971 -0.10036401 0.014679948
000080 b0 11 c1 3d 5c 6a 29 3e c7 e4 1a 3e 54 6f 0d 3e
       0.09427202 0.16544479 0.15126334 0.13812
000090 8f d5 34 3e 54 fe 0b 3d dd 28 40 3d 1b b9 c2 3c
       0.17659591 0.034178093 0.04691397 0.023769906
0000a0 a3 8e 7f 3d 75 cf b0 bb 9c 5c b1 bc b4 44 e1 3c
       0.06239189 -0.0053958246 -0.021650605 0.02749858
0000b0 b4 74 ea bc da 31 0a 3d 5b 10 41 bd 5f d7 c3 bd
       -0.028620102 0.03373895 -0.04713474 -0.09562563
0000c0 9f 9e 10 be 31 88 75 be 93 88 45 3e 09 86 07 3e
       -0.14123009 -0.23977734 0.1929038 0.13234724
0000d0 41 d3 fe 3c bf 04 0d 3e df ef 8c 3d 05 5a 3c 3a
       0.031106593 0.13771342 0.06881689 0.0007185045
0000e0 f9 a3 a6 3d 0a 68 6f 3e 9b e5 ec 3d 0e 0b 19 3d
       0.08136744 0.23379532 0.11567231 0.03736406
0000f0 b3 cc a3 bd f7 d8 80 3d 84 a6 7a 3e 9a bd 21 3e
       -0.07998028 0.06291383 0.24477583 0.15794984
000100 c8 34 a6 3c f8 da 4e 3e b7 fa 8f 3c ff 94 62 3d
       0.02028884 0.20200717 0.017575605 0.055317875
000110 e1 82 d8 3c b8 ad cf 3d 79 18 90 3d 29 54 ff 3d
       0.026429595 0.10140556 0.07035918 0.12467224
000120 c6 2b af 3d f8 16 aa 3d e8 62 1e bd 33 cb 57 3d
       0.08553271 0.08305162 -0.038668543 0.05268402
000130 1f e6 52 bd 70 73 95 bd dc 04 9c 3c 72 98 3a 3e
       -0.05148899 -0.072974086 0.019045286 0.18222216
000140 67 fb fd 3b a3 cb e4 bd 35 5d b4 bc 04 e3 3e 3d
       0.0077509168 -0.11171653 -0.0220171 0.046603218
000150 e3 00 55 3e 2d cb ef b9 12 d0 8b be 71 eb 7c be
       0.2080112 -0.0004573701 -0.27307183 -0.24699189
000160 5d 1b 5a be 38 8d 49 bd ac fd fa bc a7 e6 72 be
       -0.21299501 -0.049206942 -0.030638538 -0.237208
000170 38 8c fc be 90 f5 ef be e7 c7 20 be d5 87 b2 3d
       -0.49325728 -0.46867037 -0.15701257 0.08717314
000180 eb 5a 92 be 65 e2 06 bf 76 a8 24 bf 90 dd a5 be
       -0.2858499 -0.526892 -0.6431955 -0.323956
000190 12 8c ec 3e 76 e7 8b 3e b5 c0 9c bc f8 a4 dd bd
       0.46200615 0.27325028 -0.019134859 -0.10822481
0001a0 93 c1 13 be 97 1f 16 3f 84 b4 a2 3e ff 76 df ba
       -0.14429311 0.5864195 0.31778347 -0.0017049013
0001b0 1f 45 1a bd fc 02 d2 be a2 6a 9b 3e 98 81 74 3e
       -0.037663575 -0.41017902 0.30354792 0.23877561
0001c0 95 00 be bd 90 78 11 be 24 b6 5e be 23 d2 ba 3e
       -0.09277455 -0.14206147 -0.21749169 0.36488447
0001d0 41 f5 2e 3e 4c e6 00 be 44 35 00 be f2 47 60 be
       0.17085744 -0.12587851 -0.12520319 -0.21902445
0001e0 58 11 51 3e fa 59 97 bd 6f 3a fe bd 77 ae 15 be
       0.20416772 -0.073902085 -0.12413489 -0.14617334
0001f0 75 1c 33 be d6 61 13 be bf 99 88 3d 47 e7 52 bc
       -0.17491324 -0.1439279 0.0666995 -0.012872524
000200 12 26 56 3c c9 49 01 be ab f5 6a bd ba 29 29 bd
       0.0130706 -0.12625803 -0.057363193 -0.04129956
000210 0f 85 6d 3c 5f e2 05 bd 34 0b 58 bb 20 56 71 3d
       0.014497056 -0.032686587 -0.0032965662 0.058920026
000220 90 5a 6b bc c4 d1 8c bd e8 57 e6 bd 33 f6 d6 bd
       -0.0143648535 -0.06875947 -0.112472355 -0.104961775
000230 c5 2a af 3d 0b f6 06 bd bd 73 da bd e5 c6 42 be
       0.085530795 -0.03294949 -0.106666066 -0.19021185
000240 ab bf ac bd 55 3a b6 bc 14 a3 55 3c 79 df 4d 3d
       -0.08434995 -0.022244612 0.013039369 0.05026195
000250 21 97 e0 3d 5a 4e 08 3d 86 24 a0 3d 07 cb a0 3d
       0.109663256 0.033277847 0.07819466 0.078512244
000260 07 30 c2 bc 7b d3 b5 3c cf 94 a9 3d f0 02 c3 3c
       -0.023704542 0.022195568 0.08280336 0.023805112
000270 5d 73 05 3e bc c6 54 bd e1 98 3c be ca e7 e3 3d
       0.13032289 -0.05194734 -0.18417694 0.11128195
000280 84 ab 46 bd 0a 40 02 be 57 02 8e be de 9b c8 be
       -0.048503414 -0.12719741 -0.2773616 -0.39181417
000290 e4 25 9d be d1 ae 88 bc 04 6e 0e bd c0 3a ad be
       -0.3069297 -0.016684921 -0.034772888 -0.33833885
0002a0 78 7f f9 be e2 b1 d0 be 3c a7 d7 3d 0e fd ab 3c
       -0.48730063 -0.40760714 0.10529944 0.02099469
0002b0 f8 ea ff bd 9c 1a 85 be 0e 39 83 be e9 b5 da bd
       -0.124959886 -0.25996864 -0.25629467 -0.10679228
0002c0 9f db 29 3e 03 3a 74 3e 0e 7b 16 3e 8d 0c 22 bc
       0.16587685 0.23850255 0.14695379 -0.009890688
0002d0 20 5c 75 be c6 2f 1c bd 9c 80 01 3d e2 18 8b 3d
       -0.23960924 -0.038131498 0.031616792 0.067918554
0002e0 b9 c8 2b bc 8d 09 16 be d3 34 ce bd 74 88 64 bc
       -0.010484868 -0.14652081 -0.10068669 -0.013948549
0002f0 a3 4e 18 3e 3c 08 15 3e f6 a4 12 be 09 b1 19 be
       0.14873748 0.14553922 -0.1432074 -0.1500894
000300 d1 4f 03 bd 9a e3 4d 3e ca 74 e5 3d f9 19 20 bd
       -0.03205854 0.20106354 0.11203916 -0.03908727
000310 40 f0 1b be dd d2 95 bd 3a e6 e9 3d d5 4d 4c 3e
       -0.15228367 -0.073156096 0.11420865 0.19951566
000320 cd b0 88 3e c6 79 0a 3e 21 9a 18 be fb 79 0a be
       0.26697388 0.13523015 -0.14902546 -0.13523094
000330 0c 29 90 3c 11 c2 20 3d c0 36 ea bc f6 dc 74 be
       0.017597698 0.039247576 -0.02859056 -0.23912415
000340 b2 c5 3c be 91 0d 52 3d be 06 7a 3e d1 d1 bc 3d
       -0.1843479 0.05128247 0.24416634 0.09219707
000350 c4 86 3d be 61 2e 4a be 21 e3 c8 bd 41 54 7e 3d
       -0.1850844 -0.19744255 -0.098089464 0.06209207
000360 a8 a2 b5 3d 65 6a 2b be 42 e5 44 be 3c 89 7c 3d
       0.08868915 -0.16739805 -0.1922808 0.061654314
000370 6d 79 6a 3e 54 4f 1f 3e 1d 6c 48 bd 7f 64 c5 3d
       0.22897883 0.15557605 -0.04893123 0.09638309
000380 bc 89 43 3e 44 1c aa be b6 87 91 be 06 13 6f 3b
       0.1909551 -0.3322469 -0.28423852 0.0036479845
000390 ee cb 77 3e a3 2a 09 3e 45 c7 82 be 83 4d 2b be
       0.24198887 0.13395171 -0.25542656 -0.16728787
0003a0 fe a3 e4 bc 32 bb b6 3e 66 ec 40 bd 28 2a 59 be
       -0.027910229 0.35689694 -0.047100447 -0.21207488
0003b0 91 5e 67 be 50 b3 cd 3d 82 4d f1 3e 1f c1 10 be
       -0.22594668 0.10043967 0.47129446 -0.1413617
0003c0 1a 07 96 be 83 0a 03 be 91 2e cb 3d a4 a1 01 3f
       -0.29302293 -0.12796979 0.09920991 0.5063727
0003d0 1b 44 26 bd 7a bb ce be fe 5f 9e be 8e 06 c9 bb
       -0.040592294 -0.40377408 -0.3093261 -0.0061348146
0003e0 4e 63 0c 3f c2 c0 12 3e 5e 0a 97 bc 2b e9 27 be
       0.54839027 0.14331344 -0.01843756 -0.1639754
0003f0 50 1a aa 3d 79 20 22 3e f3 3d 2e bc 2d 0f 28 3c
       0.083058 0.158327 -0.010634887 0.010257524

conv2.bias f4 [16]
000000 ea 0e 3d 3e 3b 97 c0 be 1c 00 81 3f f9 09 a8 3d
       0.1846272 -0.3761538 1.0078158 0.08205027
000010 6f ef 41 be 1d f4 91 3e 53 a5 85 bf 1f 96 b9 be
       -0.18938993 0.28506556 -1.0441078 -0.36247346
000020 c7 44 0f 3e a2 3b 7a bf 13 d0 0f bf 4b 65 1c 3e
       0.1399108 -0.9774724 -0.5617687 0.15273015
000030 59 03 c5 3e 88 37 76 3e 07 28 01 40 78 1c 7e be
       0.38479117 0.24044621 2.018068 -0.24815547

fc1.weight f4 [120, 400]
000000 98 74 33 bd 4b b2 ba bc f7 58 38 bc 15 ba a4 bc
       -0.043812364 -0.022790095 -0.01125168 -0.020108262
000010 c6 78 09 bd 1f b8 1b 3d cd 4b 4a bd a2 27 1c bc
       -0.033562444 0.03801739 -0.049388696 -0.009530934
000020 d4 c8 fb ba 01 63 5d bc 35 a9 12 bd 7b 35 d6 bc
       -0.0019209632 -0.013512374 -0.0358059 -0.026148548
000030 7f b8 a1 bc 89 bb b0 bb 41 3e ae bc f2 af 16 bd
       -0.019741295 -0.0053934497 -0.02126992 -0.03678889
000040 4d e0 08 3d c8 ed 71 3b 1d af 3a bd d8 dc 25 3d
       0.033417035 0.003691541 -0.045577157 0.040493816
000050 61 9c a6 bc fa b6 10 bd 45 8c 7c bc ef de bf ba
       -0.02033824 -0.03533075 -0.015414302 -0.0014638583
000060 a8 18 27 bd d6 43 17 bd d0 7f 00 bd e9 ea 3d bd
       -0.040795 -0.036929928 -0.03137189 -0.046366606
000070 64 5f fc bc 94 e8 fa 3c 2e 41 25 3d 31 bc 3b bd
       -0.030807205 0.03062848 0.040345363 -0.04583377
000080 1e 68 04 3c 80 9b 30 bd fd 42 3e 3c 16 e2 13 bc
       0.008081464 -0.043117046 0.011612651 -0.009026071
000090 d2 d5 31 bd 53 c2 d3 3c 3b 9b 16 bc b6 d0 76 3b
       -0.043416806 0.025849497 -0.009192283 0.0037661023
0000a0 57 e3 39 bd 15 9f 0a bd 63 f4 b8 3c 06 d2 d1 bc
       -0.045382824 -0.03384312 0.02257747 -0.025612842
0000b0 9e 9b d0 3b dd e3 3b 3c 81 fa 97 3b 2c 65 0f 3b
       0.0063662073 0.011467901 0.0046380167 0.0021880371
0000c0 13 01 9d bc 22 78 fe 3c a6 90 41 3d f8 39 36 bd
       -0.019165551 0.031063143 0.047257088 -0.044488877
0000d0 bb b3 8e 3b d2 b7 9e bc 90 f1 26 bd 8a 9e 23 3d
       0.0043549216 -0.019374762 -0.040757716 0.039946117
0000e0 14 d0 17 3b 9c 46 00 bd d7 91 c5 3c 0b a5 f4 bc
       0.0023164796 -0.03131734 0.024117393 -0.029863855
0000f0 df ac e6 bc 4c be 86 bc 84 f8 42 bd ef 43 f0 3c
       -0.028158603 -0.016448162 -0.047600284 0.029329268
000100 e9 91 26 3d 1f da f7 ba 90 3f 3e 3b 4f 4a d2 ba
       0.040666495 -0.001890961 0.0029029585 -0.0016043874
000110 e7 e3 df 3b 3b bf 89 3c 0f 42 0d bd e8 d5 20 bd
       0.006832588 0.016814819 -0.034486827 -0.039266497
000120 ee a5 87 3b 16 73 77 3c 02 e5 17 bd f9 72 b7 bb
       0.0041396534 0.015103122 -0.037083633 -0.0055984226
000130 56 6e 21 3a da 6c b3 3c 31 26 e1 bc ac f2 b7 3b
       0.0006158104 0.02190249 -0.027484031 0.0056136455
000140 7e fb 38 3b 5c 06 a7 bb ae ef 24 3d a3 d2 0b 3a
       0.0028226073 -0.0050971936 0.04026764 0.00053338165
000150 81 6a 26 3c 2c 96 3c bd c6 3d d9 3b 72 9e b0 bc
       0.010157228 -0.046041653 0.0066296784 -0.021559928
000160 ef 5b 2f bd 73 89 2c bc 98 14 0d 3d bd 3a d8 3c
       -0.042812284 -0.010530817 0.034443468 0.026395196
000170 fe 31 e3 bc 04 b5 e9 3c f2 19 d5 3c e9 fa 1d 3d
       -0.0277338 0.028528698 0.026013348 0.038569365
000180 57 e1 f8 3c 1e 6a 37 bd 9c d1 a6 bc 18 5f c0 bc
       0.030380888 -0.044778936 -0.020363621 -0.023482844
000190 66 a2 3c 3c 0c d1 d9 bc cb 6e 0a 3d 2f 4c ad 3c
       0.011513328 -0.02658894 0.033797067 0.021154491
0001a0 bd 73 19 3d 2d b4 03 bd 69 5c 9f 3c a6 5f 34 bc
       0.037463892 -0.03215425 0.019453244 -0.0110091325
0001b0 42 b8 09 3d 72 28 2f bd 8f c1 11 bd 95 7a 00 3b
       0.033622988 -0.04276318 -0.035584982 0.0019604315
0001c0 6b 29 26 3b 61 c0 2a 3d 61 f3 dc bb 99 47 00 bd
       0.0025354277 0.041687373 -0.00674288 -0.03131828
0001d0 95 24 8e 3c ed db 3e bd 63 d7 c4 3c 03 c3 af bc
       0.017351428 -0.046596456 0.024028486 -0.021455294
0001e0 97 66 21 bd fa ac e2 3c 92 d1 86 bc 31 bd 51 bc
       -0.039404478 0.027670372 -0.016457353 -0.012801454
0001f0 d0 b7 2d bd f9 a2 3f bd 44 51 57 bd 73 15 b1 bc
       -0.042411625 -0.046786282 -0.052567735 -0.021616673
000200 ad 86 d7 3b 85 7a c4 3c 45 3c cb 3c da 41 42 bd
       0.006577334 0.023984203 0.024809012 -0.047426082
000210 a6 fb 29 bd 9e 58 74 3c d4 bf 80 bc 63 4d 8e 3c
       -0.041499756 0.014913706 -0.01571647 0.017370885
000220 92 7a 35 3c bd 37 23 bd 96 00 92 3b c3 4f 19 3d
       0.011076586 -0.039848078 0.0044556363 0.037429582
000230 3a d4 ad bc 3e ab 58 bd 97 76 3c bc 9c 84 0d bd
       -0.021219362 -0.052897684 -0.011502883 -0.034550294
000240 b3 07 83 3b f2 45 37 3d 86 48 c9 3c 7d 62 fa 3c
       0.0039987206 0.04474444 0.024570715 0.030564541
000250 6b bb 50 3b 72 d7 dc 3c 3c f9 0e bd df 34 81 3a
       0.003184999 0.026958201 -0.034905657 0.0009857676
000260 22 63 21 bb 3f db 1c bc 5d 0d 29 3d 8f cd ee bc
       -0.0024625738 -0.009573757 0.04127251 -0.029150752
000270 4f f3 9a 3c c7 37 c3 bc 1d ae af 3c c5 7e e1 bc
       0.018914847 -0.023830308 0.021445328 -0.027526269
000280 2c 41 0e 3d f0 f9 dd 3c 46 48 14 bb c1 fb c9 3b
       0.03473012 0.027096719 -0.0022626086 0.0061640446
000290 c8 4f c4 3c f5 6f 9b 3c cf 3b 85 bc 1e 96 5c bc
       0.023963824 0.018974284 -0.01626387 -0.013463525
0002a0 9d 14 65 bc f2 50 bd bc 2a 90 8e 3c 76 d0 1f bd
       -0.013981965 -0.023109887 0.017402727 -0.039017163
0002b0 75 2c cb 3c 9c 25 f7 bc 97 06 5f 3b eb 55 19 bd
       0.024801472 -0.0301693 0.0034031027 -0.037435453
0002c0 2d 36 48 bd 52 70 99 3c de f1 57 3b 07 5b 2c 3d
       -0.04887979 0.018730316 0.003295056 0.042078998
0002d0 87 b5 b1 3c a5 4e 35 bd eb 00 7e bc f7 95 1f bc
       0.021693004 -0.044264454 -0.015503149 -0.009740344
0002e0 3c 81 19 bd 43 6c 2a bc c2 21 ac bc 58 b9 be 3c
       -0.037476763 -0.010401788 -0.02101219 0.023281738
0002f0 53 69 f2 bc a2 c8 a4 bc b4 01 1a bd 85 50 66 bc
       -0.029591238 -0.0201152 -0.03759928 -0.014057283
000300 8b 13 9a 3c cb e2 d0 bb e3 22 48 bd 44 b0 b3 bc
       0.018808147 -0.006374692 -0.048861396 -0.021934636
000310 ea ed 25 3d a9 36 36 bd e4 4e 83 3c e5 6d 8e bc
       0.040510096 -0.04448572 0.016028829 -0.017386386
000320 6d e5 d1 3c 78 bf d8 3b 6b a0 d9 3c 33 dc 02 3d
       0.025622094 0.0066146217 0.026565751 0.03194828
000330 e4 a8 4c bd 2b dd 57 bb d3 e6 af bc f9 67 8a bb
       -0.049965754 -0.0032938223 -0.02147237 -0.0042238203
000340 47 e7 66 3c 6f 88 36 bd 94 07 1a bd 2c 4f 5f bb
       0.014093227 -0.044563707 -0.037604883 -0.003407429
000350 42 6c 17 3d 99 07 0b bd bf 7f ed bc 2d a2 ad 3c
       0.036968477 -0.033942793 -0.028991578 0.021195496
000360 e0 34 c6 3c f5 13 1a 3d df 0b c6 bc 28 6f 39 bb
       0.024195135 0.03761669 -0.024175582 -0.0028295014
000370 38 70 fd 3c 07 47 52 bb 30 6f c8 bc a4 b5 ff bc
       0.0309373 -0.0032085793 -0.02446708 -0.031214543
000380 ea db 28 bd e1 6e 46 bd 74 5d d1 3b 9d 5c 42 3c
       -0.04122535 -0.048445586 0.0063893143 0.011862901
000390 2a 90 9e 3c bd 6e c4 bc ac 5e cd bc 61 0a 1c bc
       0.019355852 -0.023978585 -0.025069557 -0.009523959
0003a0 5e e4 03 bd 35 a5 a4 bc 61 75 a4 bc b4 b5 b1 bc
       -0.03220021 -0.020098308 -0.020075502 -0.021693088
0003b0 14 5f 52 bc b2 1b 3a ba 24 52 0f bc 6d 9b 83 bb
       -0.012840051 -0.0007099464 -0.008747611 -0.004016331
0003c0 9b 57 1a 3d ea 53 af 3c 0b 9d b1 bc f9 14 fe 3c
       0.037681203 0.021402318 -0.02168133 0.03101586
0003d0 7b e1 37 bd 43 3f 67 bc bd 08 de ba f0 f2 41 3d
       -0.04489277 -0.014114204 -0.001693986 0.047350824
0003e0 95 13 bd bc 23 40 15 bd 41 d8 38 bc 35 69 0f ba
       -0.023080627 -0.03643812 -0.011282028 -0.0005470694
0003f0 cd 09 80 3c a3 fb 83 37 5d f4 14 bd b6 c8 f2 3c
       0.015629673 1.5733594e-05 -0.036365855 0.029636722

fc1.bias f4 [120]
000000 e3 bd 3d bd 06 f5 07 3d af 94 62 3e 3c 29 07 3e
       -0.04632367 0.033192657 0.22127031 0.13199323
000010 22 a8 c0 3d 6a 08 17 be a9 17 8e 3d 97 42 11 3e
       0.09407069 -0.14749303 0.069381066 0.14185558
000020 44 2b 70 3d 47 f2 06 bd 11 f3 22 be 35 79 10 bd
       0.05863501 -0.032945897 -0.15913035 -0.035271842
000030 66 75 a3 bc f0 d9 16 3d 31 3b 8f 3e 95 5f 8c 3d
       -0.01995344 0.036828935 0.27974847 0.06854168
000040 b7 cb 9e bc c4 ca 31 3d ef 80 66 3e 24 f8 87 be
       -0.019384248 0.043406263 0.22510122 -0.26556504
000050 34 fc d5 bd 36 21 b7 bd b4 a8 9d 3d bd 1c 5a bd
       -0.104484946 -0.08941881 0.07698193 -0.053250063
000060 4f 40 d2 bd 41 43 2e 3e ef 25 c8 bc 49 03 43 3d
       -0.10266172 0.17017843 -0.02443215 0.047610555
000070 b1 14 03 be b4 60 77 3c 81 58 6f 3d f1 a6 92 3d
       -0.12800862 0.015098739 0.058434013 0.07160748
000080 e0 00 41 3d 32 2c 45 3d f3 9f 6e bd 51 5b 23 3e
       0.047119975 0.04813785 -0.05825801 0.15952803
000090 d0 bb e9 bd c2 2d 0b be 41 b3 f5 3c 6e af 75 3d
       -0.114127755 -0.13591674 0.029992701 0.059981756
0000a0 ed db 88 3e 0f b3 42 bd 66 57 73 3d a6 65 ae 3d
       0.2673029 -0.047534045 0.05940952 0.08515482
0000b0 ef 90 67 3e ac 05 9a 3c ed 9f 29 3c 72 cd b8 be
       0.22613882 0.018801533 0.010353071 -0.36094242
0000c0 d5 84 2c be 57 55 21 3e 97 74 49 bd 16 7d 74 3b
       -0.16847546 0.15755211 -0.049183454 0.0037306002
0000d0 2b d3 ce 3c 70 b2 89 3d 34 49 f0 bc 47 3e e2 3c
       0.025247177 0.067234874 -0.029331781 0.027617587
0000e0 f0 61 40 bd a9 33 8c 3d 7a d6 44 3c a5 7f ad 3c
       -0.0469684 0.06845791 0.012014026 0.02117903
0000f0 51 45 24 3e bc d3 65 3c 0e 0b 39 bd dd ed a2 be
       0.16042067 0.014027532 -0.04517656 -0.318221
000100 cc e2 8e 3d f7 0c 86 3e c1 17 84 3c f5 64 a5 3d
       0.06976852 0.26181766 0.016124608 0.08075897
000110 96 65 12 3d b1 98 03 bd 4e 07 2a be 5e cf ff 3d
       0.03574141 -0.03212804 -0.16604349 0.12490724
000120 10 19 a1 bc 4c c9 a3 3d 1c 44 0e ba ae e7 d6 3d
       -0.019665271 0.07997379 -0.0005427019 0.10493408
000130 3b 72 e0 3d bc c0 7c 3d 16 96 b5 bc 42 a2 b3 3d
       0.10959288 0.061707243 -0.022166293 0.087711826
000140 0e b1 8f 3b 7f ef 11 bd ab d9 a2 bd ac c4 21 3e
       0.0043851202 -0.035628792 -0.07951673 0.1579768
000150 d9 1f 91 3d c0 55 e2 3c 93 62 7a 3c b4 ef 1d 3e
       0.070861526 0.02762878 0.015282291 0.1542347
000160 9b 99 36 3e d0 fd c7 3d 8c d6 91 bd c1 b1 9f 3d
       0.17832033 0.09765208 -0.07121 0.07797576
000170 ae 0f 14 3e 68 d8 59 be 52 50 2e 3e b7 4c 39 3d
       0.14459106 -0.21273959 0.17022827 0.045239177
000180 c3 fc f9 3c 38 eb 51 3d 2a ed 90 bc b6 06 55 bd
       0.030516034 0.051249713 -0.017691214 -0.052008353
000190 13 10 46 3c 7e 55 84 bd 69 f8 16 3d d5 4c 0e be
       0.012088793 -0.06461619 0.036857996 -0.13896497
0001a0 bd 29 e7 3d 4f 33 8d 3e e7 e8 07 be e1 66 cc 3d
       0.11287258 0.27578208 -0.13272439 0.0998056
0001b0 3c cc 29 bb 9e ce 52 3e cb f9 f0 3b 02 6a 9a bc
       -0.0025909087 0.2058663 0.0073539964 -0.018849377
0001c0 0f 7e 61 3e 78 e0 31 bc 3a 7c fe 3c b8 01 9e 3b
       0.22020744 -0.01085674 0.031065095 0.0048219822
0001d0 87 ca 74 be de 32 4c be ff 2b 08 3e 91 0c 6d bd
       -0.23905383 -0.1994128 0.13298033 -0.057873312

fc2.weight f4 [84, 120]
000000 27 05 24 bd 1f 85 13 3d 80 1e 59 bd b7 8c 6f 3d
       -0.040043976 0.036015626 -0.053007603 0.058483806
000010 54 d6 c8 3d 8f 83 04 be b6 16 e5 bd 35 20 ec bd
       0.09806505 -0.1294081 -0.111859724 -0.115295805
000020 c9 5a c6 3c 33 2d 16 3e e0 28 3a bd 80 0c df bd
       0.024213212 0.1466568 -0.045449138 -0.10891056
000030 4e 92 fb 3d e4 d4 76 3d 0a fb f6 3c fb 6f 9f 3c
       0.12283765 0.060261622 0.030149002 0.019462576
000040 b7 ed 7d 3d 4f 45 09 be ba 47 8e bd df 40 eb bc
       0.06199428 -0.13405345 -0.069472745 -0.028717456
000050 e9 7c c5 bd 3a 4a e5 3d 7d 10 ba bd f3 50 54 be
       -0.09642965 0.11195798 -0.09085176 -0.20734005
000060 c2 e6 c0 bd f0 1f 57 3d e1 cc 16 3c 70 1b 08 bc
       -0.094190136 0.052520692 0.00920412 -0.008307323
000070 1e be 94 3b 1c de 93 bd 2d 66 be 3a fe cf a8 3d
       0.0045392653 -0.072200984 0.00145263 0.08242796
000080 5d e2 25 3d 8b 43 9c 3d 1b 3b 51 bd d0 73 d1 3c
       0.04049908 0.0763007 -0.051081758 0.025567919
000090 66 f8 a5 3c ee d5 4d 3d 02 c5 59 bc 35 a4 23 3e
       0.020260047 0.050252847 -0.013291599 0.15980609
0000a0 dc 40 ef 3d 0b 8f e0 3d a0 d5 4f 3b 05 59 9f bc
       0.11682293 0.10964783 0.0031713024 -0.019451628
0000b0 d2 56 63 3d 5a db 21 3e 89 5a 21 bb b9 ab 12 be
       0.05550272 0.15806332 -0.0024620614 -0.1432332
0000c0 25 af 4c be a4 dc 86 bd cd 9d 25 3e d9 a4 87 bd
       -0.19988687 -0.065850526 0.16173477 -0.06623239
0000d0 05 94 0b bd 31 de f8 bc fb 9d a6 3c de b1 fb bd
       -0.03407671 -0.030379387 0.020339003 -0.12289785
0000e0 3b 2e 33 3d f4 b6 0e 3d 8c 29 1a 3e d9 84 4c 3d
       0.04374526 0.034842446 0.15054911 0.04993138
0000f0 fa 85 7a 3d 99 20 4f be d6 bc 56 be 62 6e d7 3d
       0.061162926 -0.20227279 -0.20970473 0.10519101
000100 98 9b 79 bd 7f 3e a0 bb 24 73 57 bc aa 08 26 3d
       -0.0609394 -0.0048902626 -0.01315001 0.040535606
000110 a1 42 24 bd 32 03 64 bd 7a da 11 3c e9 2c 32 3d
       -0.040102605 -0.05566711 0.0089021865 0.04349986
000120 6f 62 e4 3c 41 03 df 3c 6c 84 77 bd ae 1a fd bd
       0.027878968 0.027223231 -0.06042902 -0.12358604
000130 cd 4c 0e 3e 22 3a f4 3d d1 fd 39 bd 1e f7 23 be
       0.13896485 0.119251505 -0.045408074 -0.16012236
000140 1c bb a6 3d 21 ff c9 bd 63 82 2a 3d ff 77 9c 3c
       0.08141157 -0.09863115 0.041628253 0.019100187
000150 fb 26 02 be d9 b0 09 be e7 2e 96 bd 24 23 90 3d
       -0.12710182 -0.13446368 -0.07333165 0.070379525
000160 39 ad ff 3c 93 d5 1b 3c ec 89 13 bd ef 1b da bd
       0.031210529 0.009511369 -0.036020204 -0.10649859
000170 e5 82 a3 bd c2 2f 34 bd da 2c 3d 3e 5e 6e 49 3c
       -0.079839505 -0.043990858 0.18474141 0.01229438
000180 71 77 6e 3c a2 73 39 3d 89 69 32 bd 74 fc a2 3c
       0.014554844 0.04527629 -0.043557677 0.01989577
000190 22 ee 9b 3c 2e 93 2e bc 8a 10 99 bd a6 4d 7c 3d
       0.019034449 -0.010655208 -0.07473858 0.06159749
0001a0 85 80 c7 bd 3f a0 87 3b ec 15 ae 3d 25 8a 88 3d
       -0.0974131 0.004138976 0.08500275 0.06666974
0001b0 50 61 67 bd 4b 74 14 be b4 85 4a 3d 37 03 0b 3c
       -0.05648929 -0.14497487 0.049443915 0.008484653
0001c0 17 cd 64 bd e4 40 e4 3d 1b 1c 12 bd c7 08 e3 3d
       -0.05585965 0.111451894 -0.035671335 0.110856585
0001d0 a4 3b a5 3c 77 a5 95 bd a0 2f 10 be 83 1c e1 3d
       0.02017004 -0.073069505 -0.14080667 0.10991766
0001e0 80 63 64 3d 8c 0b f8 bc b8 5f eb bc be 84 30 bd
       0.055758953 -0.030278943 -0.028732166 -0.043095343
0001f0 69 fb b9 bb 7a f5 36 bc 8e 85 1b be 3e b8 ac bd
       -0.0056757224 -0.011166925 -0.15187666 -0.08433579
000200 56 f1 ed 3d 6e d8 a4 bb 2b 3e 63 bd df 6b 95 3c
       0.11618297 -0.0050306832 -0.05547921 0.018239914
000210 1a 83 92 bc b7 5b c6 3c 6f f3 d8 3b 7c 7b 84 bc
       -0.01788478 0.024213655 0.0066208164 -0.016172163
000220 e3 58 f8 3d a6 8d 14 39 5d 85 5c 3e 80 ce e7 bd
       0.12126329 0.00014167148 0.21535249 -0.113186836
000230 b8 5a 7e bc c6 08 87 bd e7 77 4c bd 10 36 24 bc
       -0.015524559 -0.0659347 -0.049919035 -0.010022655
000240 b4 f8 31 bc b7 f2 ba bd 3c a5 5a bd 34 0d 08 3d
       -0.010862518 -0.091283254 -0.053380236 0.033215716
000250 dc fd 6b 3a f8 2d 69 3e 2e 87 19 3b 62 c0 f6 bd
       0.00090023666 0.22771442 0.002342652 -0.12048413
000260 ae d9 41 be f5 a0 fc bd 4f 0d f4 bd e4 f0 b6 3d
       -0.18930694 -0.123353876 -0.11916601 0.08932665
000270 07 7c f3 3d 9a 9c c7 bd fb aa a2 3d ea 0a 4f bc
       0.11888891 -0.09746666 0.07942768 -0.012636879
000280 bf 04 ed bc a4 73 82 bd c6 ec 13 bd 73 1c ce 3d
       -0.028932927 -0.06369713 -0.036114477 0.1006402
000290 a4 49 89 3d 60 02 04 be 23 b6 2c be f6 d2 34 bb
       0.06703499 -0.12891531 -0.16866355 -0.0027591563
0002a0 32 90 3c 3d 7f f7 45 be 1f cc 4b 3d e5 31 1c 3d
       0.046035953 -0.19332694 0.049755212 0.03813352
0002b0 9b c1 aa bd 7f e0 8d 3d e7 c1 b0 bc 76 70 20 3c
       -0.083377086 0.06927585 -0.021576835 0.009792438
0002c0 9b 32 fe bd cd a9 88 3c 07 17 5e 3b 3a fd 53 3d
       -0.12411996 0.01668253 0.0033888237 0.051755168
0002d0 e4 ec 4e bd f7 fc a8 bd 73 fa 1a 3d 4b 73 0d 3d
       -0.050518885 -0.08251374 0.037836503 0.03453378
0002e0 00 61 c2 bc 6a e4 b2 3d 29 93 1e 3c 03 69 18 be
       -0.023727894 0.08734973 0.00967864 -0.14883809
0002f0 6d db 60 bb 74 15 48 bd 43 70 a4 bd 1c 6b 94 3d
       -0.0034310475 -0.048848584 -0.08029225 0.07246992
000300 66 58 40 bd dd be 0c bc 29 14 74 bd 1f d6 ff bd
       -0.046959303 -0.008590427 -0.05958954 -0.12492012
000310 0a 04 4d 3e 72 23 a8 3d ad 8b e7 bd 82 ac 18 3e
       0.20021072 0.08209886 -0.11305938 0.14909557
000320 50 ca 16 be 92 97 85 bd 3d 82 bd bd 5b b3 50 be
       -0.14725614 -0.0652305 -0.092533566 -0.20380919
000330 87 59 8d 3d bc 01 c3 bd d7 be 77 3c 71 87 d5 bd
       0.069018416 -0.09521815 0.015121183 -0.10426224
000340 1f af e3 bc e7 d4 e8 3d 62 68 1d bd 76 0a 1b be
       -0.027793465 0.11368733 -0.038429625 -0.1514071
000350 01 18 3e 3e 37 35 0b bd 4b 9a 03 3e 5d e9 9d bd
       0.18563844 -0.033986297 0.12851827 -0.07710526
000360 db ee 8f bd 2e a8 7b 3d 6c 59 0a 3c f0 8f c5 bd
       -0.0702798 0.061439686 0.008444171 -0.096465945
000370 48 e1 ab bd 8f e8 34 bc 00 d8 2f bb 38 ab 04 3d
       -0.08392578 -0.011041774 -0.0026831627 0.03238985
000380 fc 8c ba bd e9 cd 82 3e 5d e9 68 3d ab 3d 14 be
       -0.09108922 0.25547722 0.056863178 -0.1447665
000390 2c b5 cd bd cf ca c9 bd da af 1a bc 84 d4 d2 3d
       -0.100443214 -0.09853136 -0.00944134 0.102944404
0003a0 52 08 61 3c 72 87 49 3d ae fc d3 bd f9 0b 06 3b
       0.013734894 0.049201436 -0.10350929 0.0020453914
0003b0 88 9e 36 3e fd 5b 5b 3d 05 f1 c6 3d e3 cb db bd
       0.17833912 0.053554524 0.097139396 -0.10732248
0003c0 05 18 ae bd 9f 19 57 3d a2 32 24 3d 13 12 99 3c
       -0.08500675 0.05251467 0.04008735 0.018685376
0003d0 e4 4c 96 b8 fe f7 0d bc 75 29 dc 3c 18 95 99 bd
       -7.1668794e-05 -0.008665083 0.026875237 -0.074991405
0003e0 fb 55 b3 3b 61 69 c6 3c 26 5a 32 ba 8a c1 6f 3d
       0.005472896 0.02422017 -0.00068035943 0.058534183
0003f0 05 38 16 3e b2 cb 10 bd f1 d5 03 3c 96 3f 82 bd
       0.14669807 -0.03535051 0.008046613 -0.06359784

fc2.bias f4 [84]
000000 b2 d2 2b 3e a9 ce 9b 3e 51 d3 25 3e 2e b1 d7 bb
       0.16779593 0.30431107 0.16193892 -0.0065824008
000010 5e 4d 3b 3e 0e d2 1a bd 9b b3 24 3e c6 ae 96 3d
       0.18291232 -0.03779798 0.16084139 0.07357554
000020 4d 0c b5 bd 97 1e 8a bd f5 5a a1 bd 2b 48 67 bd
       -0.08840237 -0.06744116 -0.07878677 -0.05646531
000030 cc 33 b4 3d 12 5b c0 bc 03 e6 81 bd b2 d2 88 3d
       0.08798942 -0.023480926 -0.063426994 0.06680812
000040 95 52 30 3e ab c2 a8 bd 9e 5d 55 3d 7a 1e 62 3e
       0.17219003 -0.08240255 0.052091233 0.22081938
000050 4e 84 a6 3e fe 97 48 3d 85 33 f9 3e 2c 92 25 3d
       0.32522815 0.048973076 0.4867212 0.040422603
000060 75 e4 b0 3e 20 7f 9b 3e f7 e8 48 3e af c4 29 be
       0.345493 0.30370426 0.19620119 -0.16578935
000070 fb 5e a6 3e eb 96 e6 3e cd a0 91 bd eb cf 2f 3e
       0.3249434 0.45037016 -0.071107484 0.17169158
000080 58 e0 fd 3c 40 fd ad 3c 8b 88 65 3e 47 dd b6 3d
       0.030990764 0.021238923 0.22415368 0.08928924
000090 30 df c3 3e 86 ae 15 3f ad 08 ce 3e a9 11 14 3d
       0.38256216 0.58469427 0.40240994 0.036149655
0000a0 f6 d3 34 bd 5c f7 a2 ba 49 19 b4 3e de 76 e0 bc
       -0.044147454 -0.0012433338 0.3517554 -0.02740043
0000b0 31 f7 58 3e 66 25 30 bd cd 0d 95 bd ce f3 0b bd
       0.21188046 -0.043004416 -0.07278023 -0.034168057
0000c0 3a 47 d8 3d 19 3d e7 bd 5b 87 a7 3d ca 59 9b 3e
       0.105604604 -0.1129095 0.08180114 0.3034194
0000d0 4e cd 9a 3e 57 e8 c8 3d 18 25 d1 3c cb 07 9f 3e
       0.3023476 0.0980994 0.025530383 0.31060633
0000e0 d7 f9 1d 3e 24 bb e3 bd f7 4c cb bd e0 74 33 bd
       0.15427338 -0.111196786 -0.09926789 -0.043812633
0000f0 63 f7 46 bd eb 17 8b bd ac ec a1 bd 7c 88 54 3c
       -0.04857577 -0.06791671 -0.0790647 0.012971994
000100 cc 23 a8 3e 41 9d c6 bd 7f 61 61 3e 56 ef 96 3e
       0.3283981 -0.096979626 0.22009848 0.29479474
000110 83 c6 40 3c f0 b3 74 bd b7 bb 3e 3e ca 36 85 3e
       0.011766079 -0.059741914 0.18626295 0.26018363
000120 fa e4 15 3e 11 60 d5 3e f4 08 b0 3e 5c 74 36 3e
       0.14638129 0.41674855 0.3438183 0.17817825
000130 82 97 0b 3d 58 e1 dc 3d 48 47 0e 3e b8 b5 10 3e
       0.034080036 0.107851684 0.13894379 0.1413182
000140 2f 96 07 3e 0d 30 41 3e f6 2e 86 bd 0e 28 38 3d
       0.13240884 0.18865986 -0.06551926 0.044960074

fc3.weight f4 [10, 84]
000000 58 ca f6 3d 6e db 4d bd ea f6 72 3e fa 40 d9 bc
       0.12050313 -0.050258093 0.23727003 -0.026520241
000010 63 18 4c 3d 8f c2 01 3e 51 21 67 be e9 f9 78 be
       0.049827944 0.12671874 -0.22571303 -0.24314083
000020 f7 3e a3 bd a9 b1 cc 3d ef d9 e1 bc 5d ce 3c be
       -0.07970994 0.099948235 -0.02756974 -0.18438096
000030 60 e4 ab 3c 67 90 bb bd 7b af cd 3c 84 8c b4 bd
       0.020982921 -0.09158402 0.02510809 -0.08815864
000040 10 4f 62 bd c5 83 23 3e c7 10 ab 3a 5e a9 84 3e
       -0.05525118 0.15968235 0.0013051265 0.25910467
000050 8e 16 42 be 8b 97 92 3d 6c 29 6d be 40 3a 6e bd
       -0.18953916 0.07157811 -0.23160332 -0.05816102
000060 1a bb 93 be b4 85 c0 3c e8 7d 8f bd 3b ee 32 3e
       -0.28853685 0.023501255 -0.070064366 0.1747369
000070 a4 93 20 bd 81 ed cf bd ea 8f e3 3a 73 db d9 3c
       -0.0392033 -0.10152722 0.0017361615 0.0265939
000080 9c 38 7f bb c4 bd 14 3d 3c 01 50 bd 15 0d 82 3e
       -0.0038943654 0.036313787 -0.050782427 0.25400606
000090 58 00 47 be 58 c4 81 be da d0 54 3e 46 90 3e bd
       -0.19433725 -0.2534511 0.20782796 -0.04652431
0000a0 8e 30 0e bc e5 43 fd 3d a0 93 c8 bc f2 95 24 3e
       -0.0086785685 0.123664655 -0.024484456 0.16072825
0000b0 f8 44 18 3e 42 ad b5 3d 7b a8 da 3c e4 57 68 bc
       0.1487006 0.08870937 0.026691666 -0.014181111
0000c0 a6 c3 ac 3b ed 66 09 3e a2 55 2b be 6b 79 5b 3e
       0.0052723465 0.1341817 -0.16731885 0.21433036
0000d0 70 6b ec 3d cf 44 67 bd 84 25 02 be ec 5d 7e 3e
       0.115439296 -0.056462105 -0.12709624 0.24840516
0000e0 bd 55 41 3c f3 95 19 bd e8 13 8f 3d 7b b2 1b 3e
       0.011800227 -0.03749652 0.06986219 0.15204804
0000f0 a1 5f 0e be ec 45 f0 3d 67 44 34 3d a7 1a d5 bd
       -0.13903667 0.117320865 0.044010546 -0.10405474
000100 af b3 b2 3d b3 01 0c 3d bd 51 91 bd bb 82 72 be
       0.08725678 0.034181308 -0.070956685 -0.23682682
000110 24 53 00 be 65 89 51 3d 4d 54 31 3d 73 fd 62 3d
       -0.12531716 0.05115642 0.043293286 0.05541749
000120 55 85 e4 3d 23 4e f3 3d fd 07 23 be 4d dd c5 bd
       0.111582436 0.11880138 -0.15921016 -0.096613504
000130 7a 8e c6 bd dc 87 c6 3d 88 93 24 3e 7e 7c 72 3e
       -0.09695144 0.09693882 0.16071904 0.23680303
000140 e7 85 5b 3e 41 29 03 3e 91 4e c6 bd d6 a8 85 be
       0.21437798 0.12808706 -0.09682954 -0.26105374
000150 0b 45 80 be d8 d5 ad bd 07 43 9b bc 89 6d 06 3e
       -0.25052676 -0.08488053 -0.01895286 0.13127722
000160 64 25 08 3d 25 e2 59 3e 58 9d 0d 3e b3 71 ef bd
       0.033238783 0.21277674 0.13829553 -0.11691608
000170 cc d4 b4 bd 4c 93 de 3d 84 0b 8f bd 05 ca 26 3c
       -0.0882965 0.108679384 -0.06984618 0.010180001
000180 5b 68 84 be 8f 6c a7 3c e9 0d 11 3e 35 2e 8c 3b
       -0.25860867 0.020437507 0.14165463 0.0042779692
000190 40 cc 70 be f6 c6 20 bd 70 f5 e2 3d 7f f9 c8 3d
       -0.23515415 -0.039252244 0.1108197 0.098132126
0001a0 a5 04 80 be 11 bc 45 be 2c 61 ff bd cd 93 5f 3d
       -0.25003543 -0.19310023 -0.12469706 0.054584313
0001b0 6b 10 6f be 07 ec 95 bd a7 73 39 3e 20 ba cf 3e
       -0.23346107 -0.07320409 0.18110524 0.4057169
0001c0 55 03 1d be ac 1e d4 bd 15 20 7d 3e 80 54 03 bd
       -0.15333302 -0.10357413 0.2471927 -0.032063007
0001d0 a7 7e ff bd 87 5e a7 bd c7 4c 2f 3d c8 16 00 3d
       -0.12475329 -0.081723265 0.04279783 0.031271726
0001e0 28 9a 46 3c 43 45 29 be 18 0a 3c bc 79 fe bd bb
       0.012121715 -0.16530327 -0.011477016 -0.005798158
0001f0 1d 52 cd bd a9 4f 25 3e 47 6c 49 be f8 ab 34 3e
       -0.100254275 0.16143669 -0.19670211 0.17643726
000200 21 02 09 bd 51 9f 59 3e 1a d9 12 3c 88 af 4a 3c
       -0.033449296 0.2125218 0.008962894 0.0123709515
000210 4d be ce bd 2b da 26 3e a4 79 91 bd 81 26 8a be
       -0.10094891 0.16294162 -0.07103279 -0.269825
000220 c7 74 10 bd 9d bc 0c 3e 19 d9 7a 3d 61 43 70 be
       -0.035267618 0.13743825 0.061242197 -0.23463203
000230 26 5d 17 bd 80 47 a3 3e cd 06 69 3e 7c 04 f4 bd
       -0.036954068 0.31890488 0.227565 -0.11914918
000240 8b 66 7a 3e b2 69 84 3e 63 ee 7e 3d 72 b0 a6 bd
       0.2445318 0.2586189 0.062239062 -0.08139123
000250 2f af db be 5f c5 31 3d 03 ac b2 3d ae 1e 28 bd
       -0.42907092 0.04340112 0.08724215 -0.041044883
000260 73 09 1b 3e 4c a1 6b 3e fc fb fa 3d 21 01 26 be
       0.15140323 0.23010749 0.122550935 -0.16211368
000270 a9 52 df bc ed b9 52 be 07 10 d7 be 3e df 23 bd
       -0.027261095 -0.20578738 -0.42004415 -0.040007822
000280 c0 b8 3e 3c c7 2a ec bd dc 44 2e be 74 37 b6 3e
       0.0116407275 -0.11531597 -0.17018455 0.35589182
000290 d9 cd 2d bc 35 0b 1d 3d 66 9d c5 3d 57 63 61 3e
       -0.01060816 0.038340766 0.09649162 0.22010551
0002a0 ac 21 79 3e f6 c9 91 3e 1e a4 36 3e 94 9d c7 3d
       0.24329251 0.28474396 0.17836043 0.097468525
0002b0 64 0f 07 3e 85 46 4c bd ef 96 d1 bd c4 ec f2 3c
       0.13189465 -0.04987194 -0.102338664 0.029653914
0002c0 6e 17 b6 3d 59 59 6a 3c 08 8d 84 3d 56 c8 61 3e
       0.088911876 0.014303529 0.06472212 0.22049078
0002d0 33 96 15 be cc 74 d0 bd 13 cc 14 bb 00 0d 54 3d
       -0.14608078 -0.10178527 -0.0022704646 0.05177021
0002e0 45 53 6a bd 0e 8b 2f 3e 75 94 87 bd b0 7c 55 3c
       -0.05720832 0.17142889 -0.06620113 0.013030216
0002f0 f2 3d b4 ba fb 42 68 bd 99 21 94 bd 0a 54 7c bd
       -0.0013751371 -0.056704503 -0.07232971 -0.061603583
000300 bb 1f 87 bd 5d 7c 0b be fe 97 b5 bd 3e 17 96 bd
       -0.06597849 -0.1362166 -0.08866881 -0.07328652
000310 bc ed 30 3e c8 a6 30 3d e6 fe 56 bd a5 21 9d 3c
       0.17278188 0.043127805 -0.052489184 0.019181082
000320 d1 53 8c 3d 86 9e d8 bd 91 02 0f 3e 7d 51 62 3d
       0.06851924 -0.10577111 0.13965823 0.055253495
000330 83 62 2b be b4 4d 91 3e 7c 56 96 bd 58 0e 39 3e
       -0.16736798 0.28379595 -0.07340714 0.18071878
000340 f2 4c b9 3d 41 c2 aa bd c3 a6 af 3d 9c 0b 7f 3e
       0.09047879 -0.08337832 0.08576729 0.24906772
000350 e8 c0 8f 3c 77 97 7f bd 4c b6 04 bc f0 5a 3e 3e
       0.01754804 -0.062400308 -0.008100104 0.18589377
000360 69 c1 25 bd 47 62 96 3d 6b 5c 3a 3e 1f 4d 7d 3c
       -0.040467653 0.07342964 0.18199317 0.015460282
000370 01 57 70 3c 10 fb 3b 3e f5 fb f9 3d 8c c6 6b 3c
       0.014669181 0.18357491 0.1220626 0.014390599
000380 58 00 ad bd bd f4 6d 3d a2 1e 87 be 71 00 94 3e
       -0.08447331 0.05809473 -0.26390558 0.28906587
000390 3a fd 05 be 24 5f 7e be 58 05 28 bd 52 5b a1 3d
       -0.1308488 -0.24840981 -0.04102072 0.07878746
0003a0 16 09 b0 3d 3c 4a 08 3e 1a b6 cc bd aa f2 2e 3e
       0.08595483 0.13309568 -0.099956706 0.17084756
0003b0 56 39 fb bd b7 cc a6 bd 88 73 b6 3d 93 27 eb bd
       -0.12266795 -0.08144515 0.089087546 -0.114821576
0003c0 9f e2 c9 3d 7b 8d 83 3e 22 1a 9b 3e 8f 33 39 be
       0.09857678 0.2569388 0.30293375 -0.18086074
0003d0 ef a3 c9 bc d7 20 11 3d 92 a5 86 3e 26 56 db bd
       -0.024614302 0.03543171 0.26298195 -0.10709791
0003e0 19 62 87 3e f1 d6 13 be f9 9e b0 bb 96 dc a7 3d
       0.2644203 -0.14437462 -0.005390045 0.0819637
0003f0 e2 68 bf 3d 41 7a 6b be fc 55 01 be a1 9a f6 bd
       0.09346177 -0.22995855 -0.12630457 -0.12041212

fc3.bias f4 [10]
000000 a9 5f 94 be 2b d3 4d bf ae 56 e9 3c 6d d1 11 3f
       -0.28979233 -0.8040034 0.028483715 0.56960183
000010 f4 1b 1d 3f 6b c9 22 3e a1 5b dc 3d 12 3b cc be
       0.6137078 0.15897147 0.10759664 -0.39888817
000020 4a 61 ab 3e 1e f2 59 be
       0.33472663 -0.21283767
